…
2737,PullRequestReviewCommentEvent,2022-11-01 14:32:10+00:00,73328905,pytorch/vision,5347466,datumbox,21003710,pytorch,created,1163429859,d65197fd7da36a340e6886afb3fcf25777ef0502,False,"There is no real reason to hit `pad_image_tensor()` and go through the validation of input, parsing of parameters and multiple method calls to actually hit PyTorch's pad. We should try to be as explicit as possible on the internal implementations, as this pays out.

Here are V1 vs V2 benchmarks on latest main:
```
[-------------- CenterCrop cpu torch.float32 -------------]
                       |        old       |        new     
1 threads: ------------------------------------------------
      (3, 40, 50)      |   42 (+-  0) us  |   57 (+-  0) us
      (16, 3, 40, 50)  |  528 (+-  1) us  |  555 (+-  2) us
6 threads: ------------------------------------------------
      (3, 40, 50)      |   88 (+-  1) us  |  104 (+-  3) us
      (16, 3, 40, 50)  |  615 (+-  5) us  |  643 (+- 19) us

Times are in microseconds (us).

[------------- CenterCrop cuda torch.float32 -------------]
                       |        old       |        new     
1 threads: ------------------------------------------------
      (3, 40, 50)      |   37 (+-  0) us  |   48 (+-  0) us
      (16, 3, 40, 50)  |   31 (+-  0) us  |   48 (+-  0) us
6 threads: ------------------------------------------------
      (3, 40, 50)      |   37 (+-  1) us  |   48 (+-  1) us
      (16, 3, 40, 50)  |   31 (+-  0) us  |   48 (+-  1) us

Times are in microseconds (us).

[--------------- CenterCrop cpu torch.uint8 --------------]
                       |        old       |        new     
1 threads: ------------------------------------------------
      (3, 40, 50)      |   68 (+-  0) us  |   77 (+-  0) us
      (16, 3, 40, 50)  |  760 (+-  4) us  |  785 (+-  4) us
6 threads: ------------------------------------------------
      (3, 40, 50)      |  106 (+-  1) us  |  116 (+-  2) us
      (16, 3, 40, 50)  |  837 (+-  6) us  |  861 (+- 18) us

Times are in microseconds (us).

[-------------- CenterCrop cuda torch.uint8 --------------]
                       |        old       |        new     
1 threads: ------------------------------------------------
      (3, 40, 50)      |   37 (+-  0) us  |   48 (+-  0) us
      (16, 3, 40, 50)  |   31 (+-  0) us  |   48 (+-  0) us
6 threads: ------------------------------------------------
      (3, 40, 50)      |   37 (+-  1) us  |   48 (+-  1) us
      (16, 3, 40, 50)  |   31 (+-  0) us  |   48 (+-  1) us

Times are in microseconds (us).
```

Here is after the PR:
```
[-------------- CenterCrop cpu torch.float32 -------------]
                       |        old       |        new     
1 threads: ------------------------------------------------
      (3, 40, 50)      |   45 (+-  0) us  |   42 (+-  0) us
      (16, 3, 40, 50)  |  525 (+-  2) us  |  535 (+-  1) us
6 threads: ------------------------------------------------
      (3, 40, 50)      |   88 (+-  3) us  |   88 (+-  1) us
      (16, 3, 40, 50)  |  615 (+- 23) us  |  626 (+- 18) us

Times are in microseconds (us).

[------------- CenterCrop cuda torch.float32 -------------]
                       |        old       |        new     
1 threads: ------------------------------------------------
      (3, 40, 50)      |   37 (+-  0) us  |   35 (+-  0) us
      (16, 3, 40, 50)  |   31 (+-  0) us  |   35 (+-  0) us
6 threads: ------------------------------------------------
      (3, 40, 50)      |   37 (+-  0) us  |   35 (+-  0) us
      (16, 3, 40, 50)  |   31 (+-  0) us  |   35 (+-  0) us

Times are in microseconds (us).

[--------------- CenterCrop cpu torch.uint8 --------------]
                       |        old       |        new     
1 threads: ------------------------------------------------
      (3, 40, 50)      |   68 (+-  0) us  |   65 (+-  0) us
      (16, 3, 40, 50)  |  763 (+-  4) us  |  773 (+-  6) us
6 threads: ------------------------------------------------
      (3, 40, 50)      |  106 (+-  3) us  |  104 (+-  2) us
      (16, 3, 40, 50)  |  839 (+- 22) us  |  851 (+- 23) us

Times are in microseconds (us).

[-------------- CenterCrop cuda torch.uint8 --------------]
                       |        old       |        new     
1 threads: ------------------------------------------------
      (3, 40, 50)      |   37 (+-  0) us  |   34 (+-  0) us
      (16, 3, 40, 50)  |   31 (+-  0) us  |   35 (+-  0) us
6 threads: ------------------------------------------------
      (3, 40, 50)      |   37 (+-  0) us  |   35 (+-  0) us
      (16, 3, 40, 50)  |   31 (+-  0) us  |   35 (+-  1) us

Times are in microseconds (us).
```",MEMBER,6880,"{'url': 'https://api.github.com/repos/pytorch/vision/pulls/comments/1010496963/reactions', 'total_count': 0, '+1': 0, '-1': 0, 'laugh': 0, 'hooray': 0, 'confused': 0, 'heart': 0, 'rocket': 0, 'eyes': 0}"
2739,PullRequestReviewCommentEvent,2022-11-01 21:05:34+00:00,18864038,pymeasure/pymeasure,327442,bilderbuchi,17907618,pymeasure,created,1164049802,457de6ce0af1a859975fb113462dd4d099cf9d29,False,"```suggestion
…
