…
I try to run the following code for densenets which uses tensorpack:
https://github.com/YixuanLi/densenet-tensorflow

I have made the following change to the code:
- remove ""prefectData"" and ""imgaug.MapImage(lambda x: x - pp_mean)"" from the augmentors because it did not run on windows
- change ""SyncMultiGPUTrainer"" to ""SimpleTrainer"" because I only have 1 GPU

My environnement:
- windows 7 pro
- Python 3.6.3
- Conda 4.4.7
- Tensorflow 1.8.0
- Tensorpack 0.8.6

python crashes at the first iteration of training, here is the log I get:

> block2/dense_layer.10/bn1/beta:0   [280]               280
> block2/dense_layer.10/conv1/W:0    [3, 3, 280, 12]   30240
> block2/dense_layer.11/bn1/gamma:0  [292]               292
> block2/dense_layer.11/bn1/beta:0   [292]               292
> block2/dense_layer.11/conv1/W:0    [3, 3, 292, 12]   31536
> block2/transition2/bn1/gamma:0     [304]               304
> block2/transition2/bn1/beta:0      [304]               304
> block2/transition2/conv1/W:0       [1, 1, 304, 304]  92416
> block3/dense_layer.0/bn1/gamma:0   [304]               304
> block3/dense_layer.0/bn1/beta:0    [304]               304
> block3/dense_layer.0/conv1/W:0     [3, 3, 304, 12]   32832
> block3/dense_layer.1/bn1/gamma:0   [316]               316
> block3/dense_layer.1/bn1/beta:0    [316]               316
> block3/dense_layer.1/conv1/W:0     [3, 3, 316, 12]   34128
> block3/dense_layer.2/bn1/gamma:0   [328]               328
> block3/dense_layer.2/bn1/beta:0    [328]               328
> block3/dense_layer.2/conv1/W:0     [3, 3, 328, 12]   35424
> block3/dense_layer.3/bn1/gamma:0   [340]               340
> block3/dense_layer.3/bn1/beta:0    [340]               340
> block3/dense_layer.3/conv1/W:0     [3, 3, 340, 12]   36720
> block3/dense_layer.4/bn1/gamma:0   [352]               352
> block3/dense_layer.4/bn1/beta:0    [352]               352
> block3/dense_layer.4/conv1/W:0     [3, 3, 352, 12]   38016
> block3/dense_layer.5/bn1/gamma:0   [364]               364
> block3/dense_layer.5/bn1/beta:0    [364]               364
> block3/dense_layer.5/conv1/W:0     [3, 3, 364, 12]   39312
> block3/dense_layer.6/bn1/gamma:0   [376]               376
> block3/dense_layer.6/bn1/beta:0    [376]               376
> block3/dense_layer.6/conv1/W:0     [3, 3, 376, 12]   40608
> block3/dense_layer.7/bn1/gamma:0   [388]               388
> block3/dense_layer.7/bn1/beta:0    [388]               388
> block3/dense_layer.7/conv1/W:0     [3, 3, 388, 12]   41904
> block3/dense_layer.8/bn1/gamma:0   [400]               400
> block3/dense_layer.8/bn1/beta:0    [400]               400
> block3/dense_layer.8/conv1/W:0     [3, 3, 400, 12]   43200
> block3/dense_layer.9/bn1/gamma:0   [412]               412
> block3/dense_layer.9/bn1/beta:0    [412]               412
> block3/dense_layer.9/conv1/W:0     [3, 3, 412, 12]   44496
> block3/dense_layer.10/bn1/gamma:0  [424]               424
> block3/dense_layer.10/bn1/beta:0   [424]               424
> block3/dense_layer.10/conv1/W:0    [3, 3, 424, 12]   45792
> block3/dense_layer.11/bn1/gamma:0  [436]               436
> block3/dense_layer.11/bn1/beta:0   [436]               436
> block3/dense_layer.11/conv1/W:0    [3, 3, 436, 12]   47088
> bnlast/gamma:0                     [448]               448
> bnlast/beta:0                      [448]               448
> linear/W:0                         [448, 10]          4480
> linear/b:0                         [10]                 10[36m
> Total #vars=119, #params=1019722, size=3.89MB[0m
> [32m[0706 11:39:19 @base.py:179][0m Setup callbacks graph ...
> [32m[0706 11:39:20 @predict.py:41][0m Building predictor tower 'InferenceTower
> ' on device /gpu:0 ...
> [32m[0706 11:39:20 @summary.py:38][0m Maintain moving average summary of 3 ten
> sors in collection MOVING_SUMMARY_OPS.
…
