…
9283,IssueCommentEvent,2018-01-18 21:23:08+00:00,105161090,sphinx-contrib/matlabdomain,22655178,joeced,31936682,sphinx-contrib,289747171,358785959,"I'm not an git expert :). What I normally do (like 2-3 times) is to fork the project to my own github account, and push the changes to this fork. From there it is easy to make a pull request. ",{},COLLABORATOR,User,False
9287,IssueCommentEvent,2018-04-21 15:34:43+00:00,60626727,tensorlayer/tensorlayer,2044532,lgarithm,32261543,tensorlayer,304139132,383305653,"Alternatively, we can compute the **BFLOPs** of each layer, and the whole network, like darknet:
```
layer     filters    size              input                output
    0 conv     32  3 x 3 / 1   416 x 416 x   3   ->   416 x 416 x  32  0.299 BFLOPs
    1 max          2 x 2 / 2   416 x 416 x  32   ->   208 x 208 x  32
    2 conv     64  3 x 3 / 1   208 x 208 x  32   ->   208 x 208 x  64  1.595 BFLOPs
    3 max          2 x 2 / 2   208 x 208 x  64   ->   104 x 104 x  64
    4 conv    128  3 x 3 / 1   104 x 104 x  64   ->   104 x 104 x 128  1.595 BFLOPs
    5 conv     64  1 x 1 / 1   104 x 104 x 128   ->   104 x 104 x  64  0.177 BFLOPs
    6 conv    128  3 x 3 / 1   104 x 104 x  64   ->   104 x 104 x 128  1.595 BFLOPs
    7 max          2 x 2 / 2   104 x 104 x 128   ->    52 x  52 x 128
    8 conv    256  3 x 3 / 1    52 x  52 x 128   ->    52 x  52 x 256  1.595 BFLOPs
    9 conv    128  1 x 1 / 1    52 x  52 x 256   ->    52 x  52 x 128  0.177 BFLOPs
...
```",{},OWNER,User,False
9289,IssueCommentEvent,2018-04-13 08:29:55+00:00,60626727,tensorlayer/tensorlayer,19940114,codacy-bot,32261543,tensorlayer,312876811,381064045,"
![Codacy](https://app.codacy.com/assets/images/favicon.png) Here is an overview of what got changed by this pull request:


```diff

Clones added
============
- tensorlayer/layers/convolution.py  5
…
