…
            args.start_epoch = checkpoint['epoch']
            best_prec1 = checkpoint['best_prec1']
            model.load_state_dict(checkpoint['state_dict'])
            print(""=> loaded checkpoint '{}' (epoch {})""
                  .format(args.resume, checkpoint['epoch']))
        else:
            print(""=> no checkpoint found at '{}'"".format(args.resume))

    cudnn.benchmark = True

```

and  when testing the model i trained ,i found the fc layer is still 1000 kinds
,i struggle to figure it out for  a long time ,but it still the same ,i  dont why


1.       (0): BasicBlock (
2.         (conv1): Conv2d(256, 512, kernel_size=(3, 3), stride=(2, 2), padding=(1, 1), bias=False)
3.         (bn1): BatchNorm2d(512, eps=1e-05, momentum=0.1, affine=True)
4.         (relu): ReLU (inplace)
5.         (conv2): Conv2d(512, 512, kernel_size=(3, 3), stride=(1, 1), padding=(1, 1), bias=False)
6.         (bn2): BatchNorm2d(512, eps=1e-05, momentum=0.1, affine=True)
7.         (downsample): Sequential (
8.           (0): Conv2d(256, 512, kernel_size=(1, 1), stride=(2, 2), bias=False)
9.           (1): BatchNorm2d(512, eps=1e-05, momentum=0.1, affine=True)
10.         )
11.       )
12.       (1): BasicBlock (
13.         (conv1): Conv2d(512, 512, kernel_size=(3, 3), stride=(1, 1), padding=(1, 1), bias=False)
14.         (bn1): BatchNorm2d(512, eps=1e-05, momentum=0.1, affine=True)
15.         (relu): ReLU (inplace)
16.         (conv2): Conv2d(512, 512, kernel_size=(3, 3), stride=(1, 1), padding=(1, 1), bias=False)
17.         (bn2): BatchNorm2d(512, eps=1e-05, momentum=0.1, affine=True)
18.       )
19.     )
20.     (avgpool): AvgPool2d (
21.     )
22.     **(fc): Linear (512 -> 1000)**
23.   )
24. )


here is my testing code

- [ ] import torch
- [ ] import torch.nn as nn
- [ ] import argparse
- [ ] from PIL import Image
- [ ] import torchvision.models as models
- [ ] import skimage.io
- [ ] from torch.autograd import Variable as V
…
