…
```python
from vis.optimizer import Optimizer

optimizer = Optimizer(model.input, losses)
opt_img, grads, _ = optimizer.minimize()
```

And it crashes, `TypeError: Cannot interpret feed_dict key as Tensor: Can not convert a int into a Tensor.
`, whole error [here](https://gist.github.com/lucasrodes/97145baee80ae914e29321d4d2cc5336). My model is the following:

```
_________________________________________________________________
Layer (type)                 Output Shape              Param #   
=================================================================
conv2d_22 (Conv2D)           (None, 254, 254, 8)       72        
_________________________________________________________________
activation_44 (Activation)   (None, 254, 254, 8)       0         
_________________________________________________________________
batch_normalization_36 (Batc (None, 254, 254, 8)       32        
_________________________________________________________________
max_pooling2d_22 (MaxPooling (None, 127, 127, 8)       0         
_________________________________________________________________
conv2d_23 (Conv2D)           (None, 125, 125, 16)      1152      
_________________________________________________________________
activation_45 (Activation)   (None, 125, 125, 16)      0         
_________________________________________________________________
batch_normalization_37 (Batc (None, 125, 125, 16)      64        
_________________________________________________________________
max_pooling2d_23 (MaxPooling (None, 62, 62, 16)        0         
_________________________________________________________________
conv2d_24 (Conv2D)           (None, 60, 60, 32)        4608      
_________________________________________________________________
activation_46 (Activation)   (None, 60, 60, 32)        0         
_________________________________________________________________
batch_normalization_38 (Batc (None, 60, 60, 32)        128       
_________________________________________________________________
max_pooling2d_24 (MaxPooling (None, 30, 30, 32)        0         
_________________________________________________________________
flatten_8 (Flatten)          (None, 28800)             0         
_________________________________________________________________
dense_22 (Dense)             (None, 100)               2880000   
_________________________________________________________________
activation_47 (Activation)   (None, 100)               0         
_________________________________________________________________
batch_normalization_39 (Batc (None, 100)               400       
_________________________________________________________________
dropout_8 (Dropout)          (None, 100)               0         
_________________________________________________________________
dense_23 (Dense)             (None, 50)                5000      
_________________________________________________________________
activation_48 (Activation)   (None, 50)                0         
_________________________________________________________________
batch_normalization_40 (Batc (None, 50)                200       
_________________________________________________________________
dense_24 (Dense)             (None, 1)                 51        
=================================================================
Total params: 2,891,707
Trainable params: 2,891,295
Non-trainable params: 412
_________________________________________________________________
```
Thanks for your project.",{},{}
1597,IssuesEvent,2017-12-23 15:51:28+00:00,26627596,robertlugg/easygui,15212758,spyoungtech,,,closed,Expose 'after' callback methods,[],[]
…
