…
It should be:
    def update(self, *args, **kwargs):
        self.default_update(*args, **kwargs)",{},{}
3058,IssuesEvent,2017-08-16 00:59:55+00:00,10307315,quintusdias/glymur,2761822,quintusdias,,,closed,Qualify with openjpeg 2.2.0,[],[],0,Version 2.2.0 was just released,{},{}
3067,IssuesEvent,2017-09-29 16:30:21+00:00,73519205,raghakot/keras-vis,30186035,ggSQRT,,,opened,Help needed with visualize_cam and conv1d based architecture,[],[],0,"Hi!

I already trained a CNN with the following architecture

Layer (type)                 Output Shape              Param #   
conv1d_1 (Conv1D)            (None, 101, 50)           2050      
max_pooling1d_1 (MaxPooling1 (None, 101, 50)           0         
dropout_1 (Dropout)          (None, 101, 50)           0         
flatten_1 (Flatten)          (None, 5050)              0         
dense_1 (Dense)              (None, 200)               1010200   
dropout_2 (Dropout)          (None, 200)               0         
dense_2 (Dense)              (None, 100)               20100     
dropout_3 (Dropout)          (None, 100)               0         
dense_3 (Dense)              (None, 50)                5050   
dropout_4 (Dropout)          (None, 50)                0         
dense_4 (Dense)              (None, 2)                 102

The input is composed of equally sized sequences from the DNA alphabet using one-hot encoding. Therefore as an example, sequence ""ATGC"" will be transformed to [[1,0,0,0], [0,1,0,0], [0,0,1,0], [0,0,0,1]]. Shape of input is (101, 4, np.float32). There are also two classes of sequences [1,0] (positive) and [0,1] (negative).

My objective is to start from a ""random"" sequence and by applying grad-cam, adjust the frequency of each letter at every position ending up with a consensus sequence that maximizes the positive class prediction. If this initial random sequence had 4 letters, then its one-hot encoding would start with [[… .
…
