…
    self.__proxy__ = _get_proxy_from_spec(filename)
  File ""/Users/WeiJay/anaconda/envs/py2/lib/python2.7/site-packages/coremltools/models/model.py"", line 77, in _get_proxy_from_spec
    return _MLModelProxy(filename)
RuntimeError: Error compiling model: ""compiler error:  Error saving network to file."".
```

Also, my model seems fine in `model.summary()`. 
```
_________________________________________________________________
Layer (type)                 Output Shape              Param #   
=================================================================
input_1 (InputLayer)         (None, 416, 416, 3)       0         
_________________________________________________________________
conv2d_1 (Conv2D)            (None, 416, 416, 16)      432       
_________________________________________________________________
batch_normalization_1 (Batch (None, 416, 416, 16)      64        
_________________________________________________________________
leaky_re_lu_1 (LeakyReLU)    (None, 416, 416, 16)      0         
_________________________________________________________________
max_pooling2d_1 (MaxPooling2 (None, 208, 208, 16)      0         
_________________________________________________________________
conv2d_2 (Conv2D)            (None, 208, 208, 32)      4608      
_________________________________________________________________
batch_normalization_2 (Batch (None, 208, 208, 32)      128       
_________________________________________________________________
leaky_re_lu_2 (LeakyReLU)    (None, 208, 208, 32)      0         
_________________________________________________________________
max_pooling2d_2 (MaxPooling2 (None, 104, 104, 32)      0         
_________________________________________________________________
conv2d_3 (Conv2D)            (None, 104, 104, 64)      18432     
_________________________________________________________________
batch_normalization_3 (Batch (None, 104, 104, 64)      256       
_________________________________________________________________
leaky_re_lu_3 (LeakyReLU)    (None, 104, 104, 64)      0         
_________________________________________________________________
max_pooling2d_3 (MaxPooling2 (None, 52, 52, 64)        0         
_________________________________________________________________
conv2d_4 (Conv2D)            (None, 52, 52, 128)       73728     
_________________________________________________________________
batch_normalization_4 (Batch (None, 52, 52, 128)       512       
_________________________________________________________________
leaky_re_lu_4 (LeakyReLU)    (None, 52, 52, 128)       0         
_________________________________________________________________
max_pooling2d_4 (MaxPooling2 (None, 26, 26, 128)       0         
_________________________________________________________________
conv2d_5 (Conv2D)            (None, 26, 26, 256)       294912    
_________________________________________________________________
batch_normalization_5 (Batch (None, 26, 26, 256)       1024      
_________________________________________________________________
leaky_re_lu_5 (LeakyReLU)    (None, 26, 26, 256)       0         
_________________________________________________________________
max_pooling2d_5 (MaxPooling2 (None, 13, 13, 256)       0         
_________________________________________________________________
conv2d_6 (Conv2D)            (None, 13, 13, 512)       1179648   
_________________________________________________________________
batch_normalization_6 (Batch (None, 13, 13, 512)       2048      
_________________________________________________________________
leaky_re_lu_6 (LeakyReLU)    (None, 13, 13, 512)       0         
_________________________________________________________________
max_pooling2d_6 (MaxPooling2 (None, 13, 13, 512)       0         
_________________________________________________________________
conv2d_7 (Conv2D)            (None, 13, 13, 1024)      4718592   
_________________________________________________________________
batch_normalization_7 (Batch (None, 13, 13, 1024)      4096      
_________________________________________________________________
leaky_re_lu_7 (LeakyReLU)    (None, 13, 13, 1024)      0         
_________________________________________________________________
conv2d_8 (Conv2D)            (None, 13, 13, 512)       4718592   
_________________________________________________________________
batch_normalization_8 (Batch (None, 13, 13, 512)       2048      
_________________________________________________________________
leaky_re_lu_8 (LeakyReLU)    (None, 13, 13, 512)       0         
_________________________________________________________________
conv2d_9 (Conv2D)            (None, 13, 13, 425)       218025    
=================================================================
Total params: 11,237,145
Trainable params: 11,232,057
Non-trainable params: 5,088
_________________________________________________________________
```

```
0 : input_1, <keras.engine.topology.InputLayer object at 0x11d8fd590>
1 : conv2d_1, <keras.layers.convolutional.Conv2D object at 0x11d8fd910>
2 : batch_normalization_1, <keras.layers.normalization.BatchNormalization object at 0x11d8fd9d0>
…
