…
1532,IssueCommentEvent,2017-05-23 17:25:12+00:00,59235,mkleehammer/pyodbc,1779189,nehaljwani,,,225686752,303473183,"@MaximoTrinidad In the anaconda environment where `import pyodbc` fails on `win-64`,  please type `conda list -ec` and share the output as an attachment with a comment.",{},,User,False
1547,IssueCommentEvent,2017-07-07 15:40:48+00:00,73519205,raghakot/keras-vis,8398334,ahmedhosny,,,240670072,313717449,"ok scratch that - my network is 3d and had other resizing issues (see #54 and #55) 
backprop_modifier=None is now ok! 
testing 'guided'

here is my network anyway - using layer dropout_4 as the penultimate

```
Layer (type)                 Output Shape              Param #   
=================================================================
conv3d_1 (Conv3D)            (None, 46, 46, 46, 64)    8064      
_________________________________________________________________
batch_normalization_1 (Batch (None, 46, 46, 46, 64)    256       
_________________________________________________________________
leaky_re_lu_1 (LeakyReLU)    (None, 46, 46, 46, 64)    0         
_________________________________________________________________
dropout_1 (Dropout)          (None, 46, 46, 46, 64)    0         
_________________________________________________________________
conv3d_2 (Conv3D)            (None, 44, 44, 44, 128)   221312    
_________________________________________________________________
batch_normalization_2 (Batch (None, 44, 44, 44, 128)   512       
_________________________________________________________________
leaky_re_lu_2 (LeakyReLU)    (None, 44, 44, 44, 128)   0         
_________________________________________________________________
max_pooling3d_1 (MaxPooling3 (None, 14, 14, 14, 128)   0         
_________________________________________________________________
dropout_2 (Dropout)          (None, 14, 14, 14, 128)   0         
_________________________________________________________________
conv3d_3 (Conv3D)            (None, 12, 12, 12, 256)   884992    
_________________________________________________________________
batch_normalization_3 (Batch (None, 12, 12, 12, 256)   1024      
_________________________________________________________________
leaky_re_lu_3 (LeakyReLU)    (None, 12, 12, 12, 256)   0         
_________________________________________________________________
dropout_3 (Dropout)          (None, 12, 12, 12, 256)   0         
_________________________________________________________________
conv3d_4 (Conv3D)            (None, 10, 10, 10, 512)   3539456   
_________________________________________________________________
batch_normalization_4 (Batch (None, 10, 10, 10, 512)   2048      
_________________________________________________________________
leaky_re_lu_4 (LeakyReLU)    (None, 10, 10, 10, 512)   0         
_________________________________________________________________
max_pooling3d_2 (MaxPooling3 (None, 3, 3, 3, 512)      0         
_________________________________________________________________
dropout_4 (Dropout)          (None, 3, 3, 3, 512)      0         
_________________________________________________________________
flatten_1 (Flatten)          (None, 13824)             0         
_________________________________________________________________
dense_1 (Dense)              (None, 512)               7078400   
_________________________________________________________________
batch_normalization_5 (Batch (None, 512)               2048      
_________________________________________________________________
leaky_re_lu_5 (LeakyReLU)    (None, 512)               0         
_________________________________________________________________
dropout_5 (Dropout)          (None, 512)               0         
_________________________________________________________________
dense_2 (Dense)              (None, 256)               131328    
_________________________________________________________________
batch_normalization_6 (Batch (None, 256)               1024      
_________________________________________________________________
leaky_re_lu_6 (LeakyReLU)    (None, 256)               0         
_________________________________________________________________
dropout_6 (Dropout)          (None, 256)               0         
_________________________________________________________________
dense_3 (Dense)              (None, 2)                 514       
_________________________________________________________________
batch_normalization_7 (Batch (None, 2)                 8         
_________________________________________________________________
activation_1 (Activation)    (None, 2)                 0         
=================================================================
```",{},,User,False
1548,IssueCommentEvent,2017-04-13 16:33:52+00:00,73519205,raghakot/keras-vis,1306031,sakares,,,220096200,293952809,"In the file `visualization.py` under `vis/utils` directory which is based on your python site-package installation path,
I have made a change from 
`grads /= np.max(grads)` 
to 
`grads = np.true_divide(grads, np.max(grads))` 
…
