…
RuntimeError: Error compiling model: ""Error reading protobuf spec. validator error: Layer 'moments_15/normalize/divisor:0' consumes a layer named 'moments_15/sufficient_statistics/Const:0' which is not present in this network."".

Process finished with exit code 1
",{},{}
15035,IssuesEvent,2018-03-13 11:03:39+00:00,95862535,apple/coremltools,5547680,shishaozheng,10639145,apple,opened,CRNN Model output error with coreml,[],[],0,"I implement a crnn model with keras that structure like below:
```
Layer (type)                     Output Shape          Param #     Connected to                     
====================================================================================================
the_input (InputLayer)           (None, 32, 96, 1)     0                                            
____________________________________________________________________________________________________
conv1 (Conv2D)                   (None, 32, 96, 64)    640         the_input[0][0]                  
____________________________________________________________________________________________________
pool1 (MaxPooling2D)             (None, 16, 48, 64)    0           conv1[0][0]                      
____________________________________________________________________________________________________
conv2 (Conv2D)                   (None, 16, 48, 128)   73856       pool1[0][0]                      
____________________________________________________________________________________________________
pool2 (MaxPooling2D)             (None, 8, 24, 128)    0           conv2[0][0]                      
____________________________________________________________________________________________________
conv3 (Conv2D)                   (None, 8, 24, 256)    295168      pool2[0][0]                      
____________________________________________________________________________________________________
conv4 (Conv2D)                   (None, 8, 24, 256)    590080      conv3[0][0]                      
____________________________________________________________________________________________________
zero_padding2d_1 (ZeroPadding2D) (None, 8, 26, 256)    0           conv4[0][0]                      
____________________________________________________________________________________________________
pool3 (MaxPooling2D)             (None, 4, 25, 256)    0           zero_padding2d_1[0][0]           
____________________________________________________________________________________________________
conv5 (Conv2D)                   (None, 4, 25, 512)    1180160     pool3[0][0]                      
____________________________________________________________________________________________________
batch_normalization_1 (BatchNorm (None, 4, 25, 512)    16          conv5[0][0]                      
____________________________________________________________________________________________________
conv6 (Conv2D)                   (None, 4, 25, 512)    2359808     batch_normalization_1[0][0]      
____________________________________________________________________________________________________
batch_normalization_2 (BatchNorm (None, 4, 25, 512)    16          conv6[0][0]                      
____________________________________________________________________________________________________
zero_padding2d_2 (ZeroPadding2D) (None, 4, 27, 512)    0           batch_normalization_2[0][0]      
____________________________________________________________________________________________________
pool4 (MaxPooling2D)             (None, 2, 26, 512)    0           zero_padding2d_2[0][0]           
____________________________________________________________________________________________________
conv7 (Conv2D)                   (None, 1, 25, 512)    1049088     pool4[0][0]                      
____________________________________________________________________________________________________
permute (Permute)                (None, 25, 1, 512)    0           conv7[0][0]                      
____________________________________________________________________________________________________
reshape (Reshape)                (None, 25, 512)       0           permute[0][0]                    
____________________________________________________________________________________________________
blstm1 (Bidirectional)           (None, 25, 512)       1574912     reshape[0][0]                    
____________________________________________________________________________________________________
blstm1_out (Dense)               (None, 25, 256)       131328      blstm1[0][0]                     
____________________________________________________________________________________________________
blstm2 (Bidirectional)           (None, 25, 512)       1050624     blstm1_out[0][0]                 
____________________________________________________________________________________________________
blstm2_out (Dense)               (None, 25, 23)        11799       blstm2[0][0]   
```

The model prediction well when I used with keras. but after converting to coreml, the output value always has the same digit on each dimension like below:
[… 0.04347826167941093;
.....
.....
]

And here is the input of core ml model, I set all input lstm states to zero MultiArray
inputs:
the input                  Image(Greyscale 96x32)
blstm1_h_in              MultiArray(Double 256)?
…
