…
                nn.Conv2d(128, 256, kernel_size=(3, 3), stride=(1, 1)), ⬅
                nn.Conv2d(256, 128, kernel_size=(1, 1), stride=(1, 1)),
                nn.Conv2d(128, 256, kernel_size=(3, 3), stride=(1, 1))]
        self.f = nn.Sequential(*list)

    def forward(self, x):
        x = self.f(x)
        return x

net = Net()
summary(net, (1024, 19, 19))
```
```
----------------------------------------------------------------
        Layer (type)               Output Shape         Param #
================================================================
            Conv2d-1          [-1, 256, 19, 19]          262400
            Conv2d-2          [-1, 512, 10, 10]         1180160
            Conv2d-3          [-1, 128, 10, 10]           65664
            Conv2d-4            [-1, 256, 5, 5]          295168
            Conv2d-5            [-1, 128, 5, 5]           32896 
            Conv2d-6            [-1, 256, 3, 3]          295168 ⬅
            Conv2d-7            [-1, 128, 3, 3]           32896
            Conv2d-8            [-1, 256, 1, 1]          295168
================================================================
Total params: 2459520
Trainable params: 2459520
Non-trainable params: 0
----------------------------------------------------------------
```",{},{}
4925,IssuesEvent,2018-04-28 04:54:58+00:00,130704865,sksq96/pytorch-summary,20515144,gasvn,,,opened,Do this tool support mutiple inputs? ,[],[],0,I tried but failed to print the network information.,{},{}
…
